…
2020-05-09 19:40:48.900214: I tensorflow/stream_executor/cuda/cuda_diagnostics.cc:169] retrieving CUDA diagnostic information for host: LAPTOP-N052NH8U
2020-05-09 19:40:48.926795: I tensorflow/stream_executor/cuda/cuda_diagnostics.cc:176] hostname: LAPTOP-N052NH8U
2020-05-09 19:40:48.932242: I tensorflow/core/platform/cpu_feature_guard.cc:142] Your CPU supports instructions that this TensorFlow binary was not compiled to use: AVX2
Model: "vgg16"
_________________________________________________________________
Layer (type)                 Output Shape              Param #
=================================================================
input_1 (InputLayer)         (None, 640, 640, 3)       0
_________________________________________________________________
block1_conv1 (Conv2D)        (None, 640, 640, 64)      1792
_________________________________________________________________
block1_conv2 (Conv2D)        (None, 640, 640, 64)      36928
_________________________________________________________________
block1_pool (MaxPooling2D)   (None, 320, 320, 64)      0
_________________________________________________________________
block2_conv1 (Conv2D)        (None, 320, 320, 128)     73856
_________________________________________________________________
block2_conv2 (Conv2D)        (None, 320, 320, 128)     147584
_________________________________________________________________
block2_pool (MaxPooling2D)   (None, 160, 160, 128)     0
_________________________________________________________________
block3_conv1 (Conv2D)        (None, 160, 160, 256)     295168
_________________________________________________________________
block3_conv2 (Conv2D)        (None, 160, 160, 256)     590080
_________________________________________________________________
block3_conv3 (Conv2D)        (None, 160, 160, 256)     590080
_________________________________________________________________
block3_pool (MaxPooling2D)   (None, 80, 80, 256)       0
_________________________________________________________________
block4_conv1 (Conv2D)        (None, 80, 80, 512)       1180160
_________________________________________________________________
block4_conv2 (Conv2D)        (None, 80, 80, 512)       2359808
_________________________________________________________________
block4_conv3 (Conv2D)        (None, 80, 80, 512)       2359808
_________________________________________________________________
block4_pool (MaxPooling2D)   (None, 40, 40, 512)       0
_________________________________________________________________
block5_conv1 (Conv2D)        (None, 40, 40, 512)       2359808
_________________________________________________________________
block5_conv2 (Conv2D)        (None, 40, 40, 512)       2359808
_________________________________________________________________
block5_conv3 (Conv2D)        (None, 40, 40, 512)       2359808
_________________________________________________________________
block5_pool (MaxPooling2D)   (None, 20, 20, 512)       0
=================================================================
Total params: 14,714,688
Trainable params: 14,714,688
Non-trainable params: 0
_________________________________________________________________
[2 1 3 3 0 0]
['.\\translocationdata\\data\\Channel1_A02.BMP', '.\\translocationdata\\data\\Channel1_A04.BMP', '.\\translocationdata\\data\\Channel1_A06.BMP', '.\\translocationdata\\data\\C
…
